…
Test Loss: [1.0110758543014526, 0.7723933458328247]
3/3 [==============================] - 0s 1ms/step
R-squared for Age_x: 0.3287
R-squared for Edu_x: 0.0377
R-squared for FAS_total_raw_x: 0.1041
R-squared for FAS_total_T_x: 0.1047
R-squared for Animals_raw_x: 0.0262
R-squared for Animals_T_x: 0.1599
R-squared for BNT_totalwstim_raw_x: 0.2597
R-squared for BNT_totalwstim_T_x: 0.1327

Model Summary:
Model: "sequential"
_________________________________________________________________
 Layer (type)                Output Shape              Param #   
=================================================================
 dense (Dense)               (None, 128)               14592     
                                                                 
 dropout (Dropout)           (None, 128)               0         
                                                                 
 dense_1 (Dense)             (None, 64)                8256      
                                                                 
 dropout_1 (Dropout)         (None, 64)                0         
                                                                 
 dense_2 (Dense)             (None, 32)                2080      
                                                                 
 dense_3 (Dense)             (None, 8)                 264       
                                                                 
=================================================================
Total params: 25,192
Trainable params: 25,192
Non-trainable params: 0
_________________________________________________________________
'''
5. 
4 번 모델은 StandardScaler로 했고 5번은 MinMax Scaler로 했는데 StandardScaler가 성능이 훨신 좋군요
'''
  -- Results 5 --
R-squared for Age_x: 0.0051
R-squared for Edu_x: 0.0755
R-squared for FAS_total_raw_x: 0.1052
R-squared for FAS_total_T_x: 0.1932
R-squared for Animals_raw_x: 0.0032
R-squared for Animals_T_x: 0.1433
R-squared for BNT_totalwstim_raw_x: 0.2327
R-squared for BNT_totalwstim_T_x: 0.1746

Model Summary:
Model: "sequential"
_________________________________________________________________
 Layer (type)                Output Shape              Param #   
=================================================================
 dense (Dense)               (None, 128)               640       
                                                                 
 dropout (Dropout)           (None, 128)               0         
                                                                 
 dense_1 (Dense)             (None, 64)                8256      
                                                                 
 dropout_1 (Dropout)         (None, 64)                0         
                                                                 
 dense_2 (Dense)             (None, 32)                2080      
                                                                 
 dense_3 (Dense)             (None, 8)                 264       
                                                                 
=================================================================
Total params: 11,240
Trainable params: 11,240
Non-trainable params: 0
_________________________________________________________________

'''

6. language control only regions
'''
  -- Results 6 --
Training Loss: [0.890381932258606, 0.7179588675498962]
Test Loss: [1.0340725183486938, 0.7910915613174438]
3/3 [==============================] - 0s 1ms/step
R-squared for Age_x: 0.0594
R-squared for Edu_x: 0.0854
R-squared for FAS_total_raw_x: 0.1578
R-squared for FAS_total_T_x: 0.2266
R-squared for Animals_raw_x: 0.0258
R-squared for Animals_T_x: 0.1692
R-squared for BNT_totalwstim_raw_x: 0.2587
R-squared for BNT_totalwstim_T_x: 0.1499

Model Summary:
Model: "sequential"
_________________________________________________________________
 Layer (type)                Output Shape              Param #   
=================================================================
 dense (Dense)               (None, 128)               3200      
                                                                 
 dropout (Dropout)           (None, 128)               0         
                                                                 
 dense_1 (Dense)             (None, 64)                8256      
                                                                 
 dropout_1 (Dropout)         (None, 64)                0         
                                                                 
 dense_2 (Dense)             (None, 32)                2080      
                                                                 
 dense_3 (Dense)             (None, 8)                 264       
                                                                 
=================================================================
Total params: 13,800
Trainable params: 13,800
Non-trainable params: 0
_________________________________________________________________


---------------------------  12-17-24 Tues  ----------------------------------